cnn.pth (torch, 250887 bytes, 10 tensors)

conv1.weight f4 [6, 3, 5, 5]
-0.20006149 -0.09540209 -0.2267977 -0.121747494 -0.0870796 -0.058695953 0.0019397859 -0.071172014
-0.14650209 -0.13270731 -0.120641716 0.014435009 -0.12327329 -0.17394704 -0.13174216 -0.123234645
-0.11201867 0.0014564589 -0.11480407 -0.13295469 -0.18116023 -0.064367905 -0.089551516 -0.16290317
-0.093240045 0.09119828 0.020532306 0.007857802 -0.03154482 -0.008915952 0.049822155 0.07176426
0.06342564 0.07801716 -0.010121157 0.1058671 0.0030000776 0.018687956 0.15275751 0.02403336
-0.058867525 0.034308657 -0.017113991 0.11007578 0.101427846 -0.073045194 0.006443681 -0.09322579
-0.053486716 -0.007855301 0.06385015 0.0077309436 0.1580444 0.15134053 0.09621499 0.022387374
0.02233581 0.1934547 0.14669423 0.23178498 0.08066501 0.002351487 0.14005442 0.043833278
0.17195635 0.19817066 0.15889712 0.09496831 0.18364583 0.08848533 0.08903827 -0.011471958
0.008053376 0.08550653 0.062171474 0.13398197 0.17108017 0.046661098 -0.072196126 -0.05231586
-0.018482754 0.010530196 0.17328261 0.068413526 -0.08265733 0.008759493 0.15309894 0.04733536
0.08631186 -0.024305841 0.043293495 0.04180295 0.1425896 0.070092104 0.016832273 0.15850116
0.047585096 0.15345407 0.09407439 0.07145756 0.0024780324 -0.04332857 -0.11771579 -0.04318023
-0.00082370033 0.0036003217 0.10887865 -0.0869542 -0.07688738 -0.017329974 0.08548886 0.099097274
0.12868927 0.014940694 -0.12665913 0.032195766 0.0548773 0.038017288 -0.0030767126 -0.0840474
0.06953356 0.06458352 0.11341786 -0.006938001 -0.13040979 0.112680905 0.057554163 0.02282976
-0.054450627 -0.07890725 0.11825722 0.05597448 0.076373845 0.09111224 0.052123327 0.09783213
0.18444407 0.12817065 -0.01601184 -0.1031339 0.011329201 0.22936565 0.12199792 0.06435766
0.05561894 0.14266045 0.08600837 0.13648942 0.17230305 0.0228899 0.17128566 0.115415834
-0.10831566 -0.19710805 -0.08693902 0.0017815622 -0.03994806 -0.19500783 0.054793764 -0.10287108
0.02277256 -0.18382247 -0.04212943 0.030119803 0.16536151 -0.085152395 -0.042227294 -0.24100782
-0.07116741 0.16387255 -0.1425518 -0.025385806 -0.029449088 0.071223736 0.07672462 0.10687574
0.03131176 -0.090649396 -0.11203312 -0.117723145 0.12903558 -0.10846576 -0.14913379 0.048149776
0.12912051 -0.025272267 -0.116578154 -0.003336512 0.15185294 0.21937302 0.09135371 0.04154935
0.0035497975 0.022264129 0.2181889 0.079856895 -0.019467901 0.012808782 0.04708893 0.14088199
0.014205027 0.123730555 -0.11906332 -0.23839937 -0.12521416 0.05261257 0.03956239 0.0016408543
0.07561932 -0.09891786 -0.0645005 -0.2547294 -0.19383591 0.09991422 0.21361929 -0.12882167
-0.15616757 -0.12313175 0.08437037 0.30973497 -0.14944199 -0.08962163 -0.13626015 0.16815944
0.053252414 0.12500438 0.15822779 0.14608692 0.010613983 0.08616683 -0.043699533 -0.0080471905
-0.060950853 -0.0612682 -0.011013649 -0.088290215 -0.14359371 -0.1238846 -0.044417422 -0.000115063645
-0.07438029 0.023872 -0.034522824 -0.078497596 -0.009503802 -0.07038167 0.008652574 0.07320909
-0.08768801 -0.0104257045 -0.0125575 -0.1712572 -0.24480036 -0.036315557 -0.012704695 -0.13577169
00000000: ebdc 4cbe 2c62 c3bd a83d 68be c056 f9bd
00000010: ca56 b2bd 2b6b 70bd 6a40 fe3a a2c2 91bd
00000020: a504 16be 6de4 07be 0113 f7bd d180 6c3c
00000030: b576 fcbd 2c1f 32be 6be7 06be 7262 fcbd
00000040: 0b6a e5bd a7e6 be3a 651e ebbd 4625 08be
00000050: 1182 39be 52d3 83bd c966 b7bd 17d0 26be
00000060: a3f4 bebd 2ac6 ba3d 5e33 a83c 03be 003c
00000070: 2435 01bd 3714 12bc 5112 4c3d 24f9 923d
00000080: 4de5 813d 76c7 9f3d 36d3 25bc dad0 d83d
00000090: f39c 443b 7c17 993c 776c 1c3e 9ce1 c43c
000000a0: 131f 71bd 3c87 0c3d a432 8cbc 696f e13d
000000b0: 67b9 cf3d b898 95bd 8425 d33b 2aed bebd
000000c0: e314 5bbd 85b3 00bc dec3 823d db53 fd3b
000000d0: 64d6 213e 03f9 1a3e 5d0c c53d ba65 b73c
000000e0: 97f9 b63c fd18 463e 0337 163e 0b59 6d3e
000000f0: b233 a53d 681b 1a3b 6d6a 0f3e 868a 333d
00000100: 5315 303e 40ed 4a3e edb5 223e bf7e c23d
00000110: a70d 3c3e cc37 b53d b259 b63d e1f4 3bbc
00000120: 4ff2 033c 0c1e af3d 84a7 7e3d 9232 093e
00000130: a42f 2f3e b51f 3f3d 90db 93bd 2849 56bd
00000140: 2569 97bc d886 2c3c ff70 313e 641c 8c3d
00000150: 3f48 a9bd fa83 0f3c f8c5 1c3e b9e2 413d
00000160: 46c4 b03d 0b1d c7bc 8554 313d 9239 2b3d
00000170: 0203 123e 738c 8f3d d6e3 893c 214e 223e
00000180: 97e8 423d 1023 1d3e 13aa c03d 5758 923d
00000190: 7c66 223b 4c79 31bd fa14 f1bd c1dd 30bd
000001a0: 98ed 57ba 60f3 6b3b c5fb de3d 0b15 b2bd
000001b0: 2177 9dbd 97f7 8dbc c914 af3d 83f3 ca3d
000001c0: 1fc7 033e d0c9 743c eeb2 01be b5df 033d
000001d0: 05c7 603d 04b8 1b3d aca2 49bb 0b21 acbd
000001e0: 9c67 8e3d 5d44 843d 9f47 e83d 2c58 e3bb
000001f0: 258a 05be 3fc5 e63d eabd 6b3d 7a05 bb3c
00000200: 9f07 5fbd 209a a1bd d730 f23d 7f45 653d
00000210: e469 9c3d 0e99 ba3d 457f 553d 365c c83d
00000220: e8de 3c3e 2b3f 033e 432b 83bc de37 d3bd
00000230: 1d9e 393c d4de 6a3e 0cda f93d f3cd 833d
00000240: b0d0 633d 9515 123e 2825 b03d e2c3 0b3e
00000250: 3670 303e 9983 bb3c 8265 2f3e 235f ec3d
00000260: 9ad4 ddbd b1d6 49be 160d b2bd 4f83 e93a
00000270: 94a0 23bd 22b0 47be 6d6f 603d 13ae d2bd
00000280: 858d ba3c f53b 3cbe e98f 2cbd cebd f63c
00000290: 8754 293e 6164 aebd 87f6 2cbd c1ca 76be
000002a0: 38c0 91bd 35ce 273e 19f9 11be e5f5 cfbc
000002b0: 373f f1bc c0dd 913d cc21 9d3d abe1 da3d
000002c0: c340 003d 64a6 b9bd 9f71 e5bd d518 f1bd
000002d0: e721 043e 4c23 debd 87b6 18be b338 453d
000002e0: 2b38 043e c907 cfbc 87c0 eebd 62a9 5abb
000002f0: 567f 1b3e 52a3 603e a717 bb3d a72f 2a3d
00000300: b8a3 683b 4363 b63c e96c 5f3e 038c a33d
00000310: 267b 9fbc eddb 513c 52e0 403d 5e43 103e
00000320: 34bc 683c 7266 fd3d 78d7 f3bd f71e 74be
00000330: 2438 00be 4780 573d 2c0c 223d ef11 d73a
00000340: 4dde 9a3d 7295 cabd d718 84bd e46b 82be
00000350: ec7c 46be d49f cc3d 04bf 5a3e d4e9 03be
00000360: 64ea 1fbe 802c fcbd 5fca ac3d 9595 9e3e
00000370: 5207 19be 8c8b b7bd c887 0bbe fd31 2c3e
00000380: 341f 5a3d 2601 003e 7706 223e cf97 153e
00000390: 45e6 2d3c 3c78 b03d 48fe 32bd 5dd8 03bc
000003a0: 9aa7 79bd 5df4 7abd 9872 34bc 80d1 b4bd
000003b0: 3b0a 13be 36b7 fdbd 0bef 35bd 534e f1b8
000003c0: b254 98bd 368f c33c ce67 0dbd 59c3 a0bd
000003d0: d6b5 1bbc 4424 90bd 87c3 0d3c a6ee 953d
000003e0: c595 b3bd 93d0 2abc f9bd 4dbc 0c5e 2fbe
000003f0: f2ac 7abe 9fbf 14bd 5a27 50bc bc07 0bbe

conv1.bias f4 [6]
0.4962073 0.36641413 0.39014834 0.14865579 -0.1446386 -0.08023773
00000000: e20e fe3e a29a bb3e 86c1 c73e 3939 183e
00000010: 241c 14be ae53 a4bd

conv2.weight f4 [16, 6, 5, 5]
0.04104785 0.061493985 0.09522136 -0.020861644 0.034040425 -0.007157139 -0.055867784 0.024524897
-0.023243004 0.09043793 0.06435633 -0.03376781 0.031256005 0.032476608 0.06534029 0.06967904
0.03505764 -0.016982932 0.012439969 0.017144833 -0.053991288 -0.04619161 -0.023754755 0.000980922
0.01998511 0.08923901 0.018772608 0.01211137 0.064554594 0.13871115 -0.012647191 0.038721874
0.04440603 0.060542114 0.11959543 0.07525924 0.06256108 0.030442547 -0.006834556 0.03764219
0.023679394 0.04804761 0.042646315 -0.036332157 0.022302398 0.040137604 -0.07084144 0.029962502
-0.084459014 0.01174175 -0.08476242 -0.06699228 -0.0922732 0.01738298 0.0013718356 -0.06910726
0.039148107 0.015437056 -0.08618504 -0.09105671 0.07583651 0.04978414 0.0013402945 -0.029174112
-0.06004541 -0.072774984 0.05990613 -0.04282243 0.013004106 -0.07768436 0.0042698854 -0.0030626918
0.045368057 -0.005032334 0.02447441 -0.029632628 0.015381835 -0.09833069 -0.086919956 0.012177252
-0.025543643 0.0033300468 -0.092611134 -0.05328727 -0.13152866 -0.056102976 -0.05840641 -0.062643856
0.008757675 0.029232606 -0.055289637 -0.07474051 -0.06910383 -0.040273298 -0.08749972 -0.0006828287
-0.053753443 0.06316756 0.0842171 0.09173912 -0.036830332 -0.029867625 -0.039045107 -0.02862021
-0.031933825 0.015945217 0.03939488 0.017032478 0.10150705 0.077881046 0.024569444 -0.030559067
0.029663065 0.04321674 0.05548069 -0.040828865 0.06836216 -0.03153838 0.074143305 -0.008844071
0.0019380535 -0.0636195 -0.062725306 -0.0018166511 -0.032417927 0.024819417 -0.053651415 0.04378157
-0.04355518 0.020157784 0.0403087 -0.0020964793 -0.0066432 0.08566833 -2.7626247e-05 -0.0639873
-0.08035559 0.06006379 0.09084928 -0.0068077175 0.046101093 0.09473477 0.02103687 0.061211243
-0.028490843 0.02876822 -0.014701314 0.013979597 0.023922727 0.057695094 0.18246187 0.18159139
0.12577991 0.18592615 0.18474165 0.07799143 0.042516846 -0.025662873 0.05070394 0.0529857
0.008952424 0.06267466 0.11612179 0.06459035 0.0052110157 0.025659034 0.0052348375 0.03135442
0.09933994 -0.007782651 0.09147938 0.0928912 0.08328843 -0.015525036 -0.041587677 0.001708189
0.060521685 0.08092407 0.048363756 -0.00093434047 -0.019468125 -0.0033891825 -0.08977175 -0.046491615
-0.038584 0.014571157 -0.02871794 -0.09407432 -0.05710582 0.03505552 -0.045541883 -0.08279512
-0.060806613 0.08909108 -0.008479995 -0.029083505 0.048387893 -0.017963527 0.056389872 0.007299113
-0.0024859915 -0.04561036 0.01986324 0.020823844 -0.059006773 -0.01574161 -0.04224827 -0.100060254
-0.073302105 0.026101148 0.030451307 -0.0073497053 -0.075779825 0.029369352 0.05034631 0.016899604
0.013424396 0.06194457 -0.08698685 0.046947345 -0.008115047 -0.018174468 0.0005303124 -9.8676835e-05
0.063132666 -0.07554896 -0.031869747 0.035864312 -0.004090003 -0.08909306 0.0673984 0.06272997
0.007396158 0.0973444 0.010496337 0.04370638 -0.02271601 -0.010595461 0.047214933 -0.051914774
-0.016557897 0.07345207 -0.042004254 0.057554368 -0.03313745 -0.07634753 -0.017452922 -0.09990286
-0.08297571 -0.13437428 -0.05882319 0.051562596 -0.03379325 0.07751565 0.07298387 0.0029041686
00000000: ca21 283d 1ee1 7b3d 6b03 c33d 0ae6 aabc
00000010: f96d 0b3d 6f86 eabb 9ed5 64bd 70e8 c83c
00000020: 1d68 bebc 8537 b93d 40cd 833d 1d50 0abd
00000030: 4c06 003d 3106 053d 21d1 853d e2b3 8e3d
00000040: 9a98 0f3d ca1f 8bbc 03d1 4b3c 5273 8c3c
00000050: f825 5dbd 6a33 3dbd 5599 c2bc 4892 803a
00000060: d0b7 a33c f1c2 b63d 03c9 993c c56e 463c
00000070: 3335 843d 4c0a 0e3e 2a36 4fbc d49a 1e3d
00000080: 19e3 353d 02fb 773d 73ee f43d 8421 9a3d
00000090: 0620 803d a662 f93c 69f4 dfbb b22e 1a3d
000000a0: 4afb c13c 92cd 443d e7ad 2e3d 07d1 14bd
000000b0: 85b3 b63c 5467 243d 5115 91bd ec73 f53c
000000c0: d9f8 acbd 7860 403c eb97 adbd 4033 89bd
000000d0: bbf9 bcbd c066 8e3c 2acf b33a 1b88 8dbd
000000e0: c459 203d b5eb 7c3c c881 b0bd f17b babd
000000f0: 2c50 9b3d 74ea 4b3d d2ac af3a 8cfe eebc
00000100: 2df2 75bd 0d0b 95bd 2160 753d 9366 2fbd
00000110: 2c0f 553c fa18 9fbd 65ea 8b3b 71b7 48bb
00000120: dbd3 393d 47e6 a4bb 8f7e c83c 20c0 f2bc
00000130: 1804 7c3c 9a61 c9bd 1703 b2bd 1983 473c
00000140: e740 d1bc ea3c 5a3b e8aa bdbd c143 5abd
00000150: 73af 06be 3ccc 65bd 8f3b 6fbd 6c4b 80bd
00000160: 5a7c 0f3c 3879 ef3c 6377 62bd 8d11 99bd
00000170: 4f86 8dbd 9df5 24bd 0e33 b3bd dcff 32ba
00000180: 922c 5cbd fe5d 813d 047a ac3d b8e1 bb3d
00000190: 67db 16bd f3ac f4bc c3ed 1fbd ee74 eabc
000001a0: 0bcd 02bd 8b9f 823c 875c 213d b287 8b3c
000001b0: eee2 cf3d 1980 9f3d dc45 c93c 0257 fabc
000001c0: f5ff f23c 0904 313d b83f 633d 2b3c 27bd
000001d0: 7601 8c3d 632e 01bd 72d8 973d b9e6 10bc
000001e0: 4906 fe3a f14a 82bd 2076 80bd b21c eeba
000001f0: a9c8 04bd 1752 cb3c 96c1 5bbd 4e54 333d
00000200: eb66 32bd f021 a53c bc1a 253d 1665 09bb
00000210: 33af d9bb e172 af3d eabe e7b7 c60b 83bd
00000220: 7991 a4bd 7305 763d 300f ba3d 4613 dfbb
00000230: 80d4 3c3d 4e04 c23d 8455 ac3c a4b8 7a3d
00000240: a165 e9bc 55ab eb3c c8dd 70bc ae0a 653c
00000250: 98f9 c33c b151 6c3d 49d7 3a3e 18f3 393e
00000260: 73cc 003e 6d63 3e3e ea2c 3d3e f9b9 9f3d
00000270: 2526 2e3d f23a d2bc efae 4f3d 8907 593d
00000280: 30ad 123c 925b 803d 43d1 ed3d f247 843d
00000290: 2bc1 aa3b e532 d23c 0089 ab3b 7e6d 003d
000002a0: bd72 cb3d 9c05 ffbb 8b59 bb3d be3d be3d
000002b0: 2093 aa3d b85c 7ebc d757 2abd 50e5 df3a
000002c0: 96e5 773d 85bb a53d 1319 463d 87ee 74ba
000002d0: 9e7b 9fbc 0c1d 5ebb 40da b7bd fe6d 3ebd
000002e0: 420a 1ebd ddbb 6e3c e341 ebbc 09aa c0bd
000002f0: cbe7 69bd 6096 0f3d 208a 3abd 7d90 a9bd
00000300: 5b10 79bd 6275 b63d adef 0abc 8840 eebc
00000310: 6232 463d 3f28 93bc 11f9 663d 662d ef3b
00000320: 04ec 22bb eed1 3abd 3cb8 a23c c496 aa3c
00000330: 16b1 71bd 8df4 80bc 860c 2dbd 64ec ccbd
00000340: 6a1f 96bd 13d2 d53c 0575 f93c ccd5 f0bb
00000350: 7432 9bbd ff97 f03c ef37 4e3d 0a71 8a3c
00000360: fff1 5b3c 97b9 7d3d 2926 b2bd dc4b 403d
00000370: f9f4 04bc 9fe2 94bc aa04 0b3a b9f0 ceb8
00000380: b34b 813d 6ab9 9abd da89 02bd 75e6 123d
00000390: 6f05 86bb 6c76 b6bd 2c08 8a3d 9278 803d
000003a0: 785b f23b 805c c73d d4f8 2b3c 7605 333d
000003b0: ed16 babc 9698 2dbc 7264 413d 96a4 54bd
000003c0: 6da4 87bc 0a6e 963d a70c 2cbd 21be 6b3d
000003d0: 23bb 07bd 185c 9cbd 6ef9 8ebc df99 ccbd
000003e0: 2bef a9bd 6999 09be 96f0 70bd 4d33 533d
000003f0: ca6a 0abd 86c0 9e3d 9178 953d dd53 3e3b

conv2.bias f4 [16]
-0.04747881 -0.00309824 -0.06669917 0.0075649107 -0.05559234 0.18430816 0.0660775 -0.041579496
0.050486688 -0.1575718 -0.060716618 -0.15513678 0.09035398 0.043172944 0.16285065 0.12543203
00000000: 2479 42bd d70b 4bbb 9399 88bd 12e3 f73b
00000010: cbb4 63bd 47bb 3c3e a453 873d 434f 2abd
00000020: 21cb 4e3d 805a 21be fdb1 78bd 2ddc 1ebe
00000030: 820b b93d 1dd6 303d 52c2 263e 4171 003e

fc1.weight f4 [120, 400]
0.0124323275 -0.018952318 0.0066104163 -0.018540667 0.04603718 -0.02661844 -0.027754135 0.008315931
-0.049444463 -0.024650535 -0.0030302794 0.01992398 -0.039181393 0.00626209 -0.0046124444 0.031633765
0.039485324 -0.030094713 -0.0113059925 0.043016296 0.019025251 -0.04431655 -0.0147384405 -0.013101598
0.035745613 0.0053598275 -0.025211545 0.007002146 -0.004121631 0.046309013 0.022539653 0.029356297
-0.015349199 -0.008555072 -0.044930264 -0.035553128 0.048199814 -0.038340334 0.036478624 0.011761137
0.00841404 -0.039690506 -0.041132383 0.04606461 -0.031838153 0.017349984 0.00057568355 -0.037798163
0.017296646 0.040703006 0.034162886 -0.025541298 -0.04359076 0.033941843 0.042317912 0.026889415
-0.0069874213 0.0068713436 -0.009612489 -0.0070363116 0.008542085 -0.01863185 -0.028654715 0.01011261
-0.0022391938 -0.006866353 0.034976978 0.038401123 -0.015382932 0.04098149 0.025801476 0.044086196
-0.04747599 -0.023296978 9.975501e-05 0.007460439 0.04035341 -0.013366622 0.04117785 0.037907686
0.019960187 -0.032602366 -0.025767492 0.035502963 0.038801134 -0.028689725 0.01594012 0.026554987
-0.044874202 0.026852373 0.029104471 0.0014130812 -0.009038697 0.008603097 -0.04489343 0.028500775
-0.011836624 0.0060244044 -0.038294505 0.040171936 -0.03695431 0.04610696 -0.0019866426 -0.038840678
0.045923814 0.03093398 -0.034600068 -0.043660644 0.03916022 -0.049974717 -0.013233723 -0.042440806
0.01140948 -0.02203279 0.036980145 -0.047362685 0.033816766 0.0023225853 0.022778118 0.04594617
0.02671054 0.02393411 -0.03941424 -0.001199842 -0.020799613 -0.0060520205 -0.0460082 0.005059603
0.0017245455 -0.04807806 -0.03445921 0.022344071 -0.00610492 -0.022641849 0.029712293 -0.024363218
-0.032693505 -0.02309766 -0.03680815 -0.025798608 -0.032195333 -0.028360786 -0.037548 -0.01448099
0.048754163 -0.037156455 -0.007753224 -0.019575633 0.04136399 -0.014763743 0.02928897 -0.012880799
-0.0018703955 0.019698093 -0.038364194 0.0039748233 -0.006992801 -0.043947835 -0.015555886 -0.039268557
0.043791737 -0.03831025 0.015408017 -0.044227198 0.024268864 0.021529524 -0.024588294 -0.01862634
-0.04115539 -0.02756171 0.01012796 0.016926153 -0.02406528 0.006091155 0.049304154 0.014260895
-0.021569667 0.021939509 0.023941334 0.044606492 0.012078342 -0.01589718 -0.04572438 0.0144993225
-0.019151162 0.004183467 0.035555795 0.0072208275 0.021300174 0.042902235 0.03470084 -0.033650313
0.006431402 0.0039001466 -0.019233115 -0.042385995 -0.009846542 -0.012994996 -0.031006297 -0.037772454
-0.041097786 -0.015307907 0.03764498 0.0076363655 -0.043116238 0.019986192 -0.04572403 0.04887087
-0.00079554535 0.041978884 -0.0058734934 0.046432193 -0.04492214 -0.04477759 0.0004737818 0.035638142
0.0012906134 -0.013952297 0.018384645 0.046325754 -0.019817924 -0.0369723 0.022322927 0.041014187
-0.0011158142 0.030776711 0.045942936 -0.02514296 0.0025502208 -0.013624723 -0.02946534 -0.03560297
-0.030829286 -0.008945151 0.016074667 -0.025322884 0.002925807 0.01627565 0.009752414 0.016883822
0.021864645 0.0052250414 -0.0021406023 0.01771646 -0.040283248 0.045181755 -0.046126477 -0.0324789
-0.04387799 0.009558989 0.0148285795 -0.0048207645 -0.0034667077 0.033826448 0.017499736 0.019405294
00000000: f6b0 4b3c e441 9bbc 319c d83b 99e2 97bc
00000010: 7b91 3c3d ea0e dabc a45c e3bc 8b3f 083c
00000020: 4786 4abd ebef c9bc a797 46bb 9d37 a33c
00000030: ab7c 20bd 3832 cd3b fd23 97bb 6892 013d
00000040: 5dbb 213d 3089 f6bc c53c 39bc db31 303d
00000050: d8da 9b3c 4585 35bd 8079 71bc 16a8 56bc
00000060: fe69 123d 7ea1 af3b 7188 cebc 4272 e53b
00000070: bf0e 87bb 85ae 3d3d 14a5 b83c 9e7c f03c
00000080: 357b 7bbc 932a 0cbc cc08 38bd 28a0 11bd
00000090: 2b6d 453d c10a 1dbd 9c6a 153d c9b1 403c
000000a0: 0bdb 093c 8392 22bd 6e7a 28bd 3fae 3c3d
000000b0: b968 02bd 8e21 8e3c 78e9 163a 3fd2 1abd
000000c0: b2b1 8d3c 32b8 263d 62ee 0b3d fc3b d1bc
000000d0: 3a8c 32bd 9a06 0b3d 8c55 2d3d 3147 dc3c
000000e0: bdf6 e4bb 0229 e13b b37d 1dbc dc90 e6bb
000000f0: 1af4 0b3c d2a1 98bc 4bbd eabc 5caf 253c
00000100: 70bf 12bb 25ff e0bb 0544 0f3d 7f4a 1d3d
00000110: b108 7cbc 35dc 273d 9e5d d33c ba93 343d
00000120: 2f76 42bd 4ed9 bebc 9033 d138 b376 f43b
00000130: 9e49 253d adff 5abc 1baa 283d 1745 1b3d
00000140: 8c83 a33c 0f8a 05bd 5916 d3bc 8e6b 113d
00000150: f0ed 1e3d b706 ebbc db94 823c d889 d93c
00000160: 03ce 37bd 82f9 db3c 806c ee3c 2337 b93a
00000170: 0b17 14bc 01f4 0c3c 2ce2 37bd 757a e93c
00000180: 66ee 41bc 5e68 c53b b3da 1cbd 548b 243d
00000190: 675d 17bd a7da 3c3d 5532 02bb 6717 1fbd
000001a0: 9c1a 3c3d 4269 fd3c cdb8 0dbd 81d5 32bd
000001b0: 7866 203d 4ab2 4cbd 42d2 58bc 69d6 2dbd
000001c0: d4ee 3a3c 1c7e b4bc 7e78 173d 60ff 41bd
000001d0: 7383 0a3d 8436 183b 2d99 ba3c 0d32 3c3d
000001e0: 10d0 da3c 7711 c43c d370 21bd 0444 9dba
000001f0: f363 aabc 0750 c6bb 1873 3cbd 07cb a53b
00000200: 250a e23a 80ed 44bd 1a25 0dbd ea0a b73c
00000210: c80b c8bb 667b b9bc 3267 f33c 5f95 c7bc
00000220: a0e9 05bd 4e37 bdbc 25c4 16bd 9a57 d3bc
00000230: 41df 03bd e154 e8bc efcb 19bd ad41 6dbc
00000240: 72b2 473d 5e31 18bd c20e febb 145d a0bc
00000250: 4a6d 293d a0e3 71bc 6cef ef3c fd09 53bc
00000260: 0f28 f5ba e55d a13c c623 1dbd 3c3f 823b
00000270: de23 e5bb a502 34bd 1dde 7ebc 11d8 20bd
00000280: f75e 333d 35eb 1cbd e871 7c3c 9427 35bd
00000290: 7fcf c63c af5e b03c 646d c9bc 4496 98bc
000002a0: 8e92 28bd 18c9 e1bc beef 253c b7a8 8a3c
000002b0: 8d24 c5bc 5098 c73b 27f3 493d 87a6 693c
000002c0: dfb2 b0bc 7cba b33c 9e20 c43c 4cb5 363d
000002d0: 3de4 453c ce3a 82bc 7d49 3bbd 918e 6d3c
000002e0: e6e2 9cbc 7715 893b f4a2 113d b19c ec3b
000002f0: b47d ae3c 41ba 2f3d 7822 0e3d e9d4 09bd
00000300: 83be d23b 9a99 7f3b c48e 9dbc f09c 2dbd
00000310: 6453 21bc f7e8 54bc eb00 febc 4ab7 1abd
00000320: 2756 28bd 04ce 7abc 9f31 1a3d 7a3a fa3b
00000330: a79a 30bd 15ba a33c 1f49 3bbd d22c 483d
00000340: 258c 50ba 0df2 2b3d 6f76 c0bb af2f 3e3d
00000350: 4700 38bd b568 37bd eb65 f839 4df9 113d
00000360: cd29 a93a 2d98 64bc 659b 963c 13c0 3d3d
00000370: 3359 a2bc 4470 17bd 92de b63c 7efe 273d
00000380: 8340 92ba 711f fc3c a92e 3c3d 9cf8 cdbc
00000390: 9b21 273b 3b3a 5fbc 4c61 f1bc 6bd4 11bd
000003a0: b38d fcbc af8e 12bc 05af 833c f071 cfbc
000003b0: e5be 3f3b 8354 853c 97c8 1f3c f14f 8a3c
000003c0: 7c1d b33c d336 ab3b 5949 0cbb 1c22 913c
000003d0: 0c00 25bd 8110 393d 1eef 3cbd 9808 05bd
000003e0: 68b9 33bd 4e9d 1c3c 92f3 723c 81f7 9dbb
000003f0: b431 63bb 9a8d 0a3d 9b5b 8f3c daf7 9e3c

fc1.bias f4 [120]
-0.049230922 0.0904438 0.0007915506 -0.046484932 0.01739635 -0.027000869 0.010803993 -0.032700878
0.039866973 -0.048757426 -0.017077347 -0.048716404 0.03573474 0.069192655 0.05778435 0.06007242
-0.0030817927 -0.024921352 -0.025641546 0.0039271354 0.001734596 -0.0004377897 -0.0010072001 0.02022141
0.030245574 -0.04232821 -0.056928474 -0.04141138 0.0064121364 0.03087169 -0.0150360735 0.013909588
-0.046745863 0.02982002 -0.031039983 0.036270488 -0.037613872 0.06798034 0.031796146 0.048127055
-0.028540097 0.08275962 0.023365412 0.08627373 0.065826 -0.008771865 -0.012409933 -0.00028148666
-0.011221149 0.0639937 -0.0212562 0.03601957 -0.0032952088 0.04061048 0.014077011 -0.03238494
0.06358398 0.05907481 -0.034023512 -0.043078054 -0.020571249 -0.023320382 -0.006150044 0.017666608
-0.034126133 -0.057984054 -0.00044134702 -0.0031936164 -0.002988163 -0.07458509 -0.025983157 -0.04127
0.039979387 0.037252683 -0.02398138 0.010522657 0.040213805 -0.01241176 -0.0029928219 -0.029961886
0.04067363 0.065269046 0.08368954 -0.0257055 0.033173107 -0.0059022573 -0.04926045 0.063943066
0.0013254178 -0.016595067 0.07623389 0.0010718728 -0.048538566 -0.02374228 0.015033022 0.009613194
0.03555774 -0.015701737 -0.0063997232 -0.024361193 0.0424285 0.05603861 -0.0047998256 0.00410525
0.021933887 0.027715735 -0.007848145 -0.0377899 -0.012073826 0.00070464925 -0.016127015 0.05986664
-0.023452347 -0.047256157 0.023684075 -0.04620755 -0.05527522 0.05178075 0.009264577 0.068591274
00000000: 5da6 49bd 993a b93d 1080 4f3a fc66 3ebd
00000010: ca82 8e3c ed30 ddbc 3b03 313c 5bf1 05bd
00000020: 8d4b 233d deb5 47bd cbe5 8bbc da8a 47bd
00000030: 975e 123d e1b4 8d3d 48af 6c3d 7f0e 763d
00000040: e7f7 49bb dd27 ccbc 380e d2bc 33af 803b
00000050: 625b e33a 2487 e5b9 0704 84ba 5fa7 a53c
00000060: 91c5 f73c 5860 2dbd d52d 69bd fb9e 29bd
00000070: e61c d23b a0e6 fc3c dd59 76bc 0ae5 633c
00000080: 9778 3fbd 1d49 f43c 9047 febc 5d90 143d
00000090: 0111 1abd 4739 8b3d ad3c 023d e020 453d
000000a0: eccc e9bc e07d a93d d268 bf3c 48b0 b03d
000000b0: c8cf 863d deb7 0fbc 0853 4bbc 8094 93b9
000000c0: e9d8 37bc 210f 833d 7b21 aebc 4289 133d
000000d0: 6ef4 57bb 2d57 263d 43a3 663c 12a6 04bd
000000e0: 5138 823d 6ef8 713d 3d5c 0bbd 9d72 30bd
000000f0: 0985 a8bc 630a bfbc 4f86 c9bb 90b9 903c
00000100: d8c7 0bbd b080 6dbd 9864 e7b9 fe4b 51bb
00000110: 0ed5 43bb 11c0 98bd a1da d4bc bb0a 29bd
00000120: 6dc1 233d 4596 183d 9974 c4bc 3967 2c3c
00000130: 3bb7 243d b25a 4bbc 3823 44bb a172 f5bc
00000140: 6499 263d c7ab 853d 6c65 ab3d 5794 d2bc
00000150: 86e0 073d b967 c1bb 53c5 49bd 95f4 823d
00000160: a4b9 ad3a 61f2 87bc 8420 9c3d 157e 8c3a
00000170: 60d0 46bd 2c7f c2bc 104d 763c a880 1d3c
00000180: fea4 113d eea0 80bc c5b4 d1bb 2091 c7bc
00000190: 82c9 2d3d be88 653d db47 9dbb 5585 863b
000001a0: b2ae b33c 1c0c e33c 8295 00bc 95c9 1abd
000001b0: 4cd1 45bc 36b8 383a cd1c 84bc b936 753d
000001c0: 231f c0bc ac8f 41bd 1b05 c23c 2144 3dbd
000001d0: 4568 62bd 0d18 543d 74ca 173c 9579 8c3d

fc2.weight f4 [84, 120]
-0.04885781 0.029117646 -0.056792643 -0.09015345 0.10824235 0.03332446 -0.018196587 0.13996272
-0.083377264 -0.02280805 0.08330114 0.097961746 0.07977979 0.02960786 -0.055171683 -0.04266269
0.13141844 -0.023432119 0.06261049 0.07376467 -0.011106225 -0.08214438 0.011667106 -0.1222857
0.0011978339 -0.07034956 -0.06879076 0.026439006 0.01831357 -0.07678641 0.08357496 0.06205248
-0.079197414 0.054741018 -0.12082841 -0.088519864 -0.0514907 -0.033824865 0.08160962 0.053977564
-0.047914345 -0.020281442 0.10698654 -0.05970328 -0.06778921 -0.056281023 -0.053405046 0.063896656
-0.008978887 0.027664818 -0.05796004 0.037721407 0.034793146 0.010063593 0.0795509 -0.03919571
-0.061535623 -0.0539018 0.02783811 0.02494327 0.034271542 -0.050896347 -0.010735954 0.0245027
0.054348696 -0.044979736 0.023235567 -0.015639765 0.083690725 0.10206459 -0.05638751 -0.05793259
-0.07556357 0.013992146 -0.011738486 -0.05561967 -0.055702735 -0.06410319 0.007960956 0.0381654
-0.005355405 -0.060151923 0.02433017 0.019872805 0.018890558 -0.080056086 -0.058025002 0.10737092
-0.016570458 -0.06307366 0.08716356 -0.081730545 -0.04897366 -0.0011648263 0.060662888 0.019786453
-0.08818151 0.025389876 -0.02133263 0.020979954 0.071552455 -0.10877251 0.07833217 0.013500097
0.11056809 0.008966797 0.0125848595 0.05509795 0.016189514 -0.033453096 0.00054441247 0.0072988267
-0.027213268 0.020755796 0.012972082 0.046478536 -0.006035834 -0.05732621 -0.028271869 0.09768822
-0.005473724 0.066086225 -0.037812024 0.011632042 -0.03075626 0.04090785 -0.053120624 -0.05498548
0.045367673 0.08557966 -0.06891217 0.021822345 0.090498574 0.020611495 0.07222363 -0.08247283
0.05673933 -0.017600654 0.009233008 0.014152921 -0.011546129 0.03097908 0.035415832 -0.06073468
-0.032141026 -0.026726356 0.046410907 0.0329254 0.044186525 -0.053959955 -0.06548663 0.009178917
0.037937555 -0.081240006 -0.06583349 -0.06924115 -0.024887241 0.13436952 0.075242974 -0.019761823
-0.00029841004 0.00011640975 -0.054626077 0.020393917 -0.04360867 -0.06226583 0.017007375 0.0607195
-0.0350283 0.072053604 0.06174643 0.05357866 0.07806863 0.11041208 0.067225896 0.021980396
-0.01984353 -0.014317308 -0.008029083 -0.0044262307 -0.06455424 -0.018645994 0.004212716 -0.0069460245
0.0012047434 -0.028603194 -0.051672805 0.08105336 -0.047330704 -0.062405806 -0.0779219 0.003028156
0.0010179976 -0.00638729 -0.081334375 -0.056133237 0.012937296 -0.011408291 -0.064610094 0.055206582
-0.06514515 0.090549074 -0.05431201 -0.033351704 0.07194838 0.0575699 0.022478856 -0.033568613
-0.065205894 -0.025962938 -0.019022126 0.031403624 0.055957116 -0.010935322 0.06590987 0.020557828
-0.036964793 0.060914926 0.0761734 0.026959127 0.09041963 -0.0799232 -0.008727453 0.07769658
0.023390532 0.11567212 0.10421445 -0.023104483 0.13132955 -0.023860162 0.09022756 0.021470327
0.08123987 0.021668335 0.07537475 0.06511355 -0.07740289 0.017454462 0.045628063 0.12489054
0.0040541524 0.10881989 -0.019872202 -0.014476392 0.043190207 0.0069836127 -0.001912919 -0.05323782
0.06151519 -0.052180324 -0.021372646 0.051812306 0.10515472 -0.061168104 0.07511191 0.05511335
00000000: 211f 48bd 2188 ee3c 679f 68bd 5fa2 b8bd
00000010: 2aae dd3d 3b7f 083d 0211 95bc 6352 0f3e
00000020: b3c1 aabd f3d7 babc ca99 aa3d 2ba0 c83d
00000030: 9663 a33d 2f8c f23c b4fb 61bd 13bf 2ebd
00000040: 8e92 063e b7f4 bfbc ee39 803d ee11 973d
00000050: e2f6 35bc 503b a8bd 6427 3f3c ed70 fabd
00000060: a300 9d3a 6e13 90bd 2ce2 8cbd 9d96 d83c
00000070: 5706 963c 3142 9dbd 5929 ab3d be2a 7e3d
00000080: 4132 a2bd 1e38 603d e374 f7bd e749 b5bd
00000090: eae7 52bd f18b 0abd f222 a73d 9417 5d3d
000000a0: d541 44bd 4425 a6bc c21b db3d 6d8b 74bd
000000b0: 12d5 8abd ee86 66bd 40bf 5abd 40dc 823d
000000c0: 2f1c 13bc 54a1 e23c 8267 6dbd c381 1a3d
000000d0: 4283 0e3d c5e1 243c 95eb a23d ae8b 20bd
000000e0: c70c 7cbd 22c8 5cbd c00c e43c d455 cc3c
000000f0: 5160 0c3d b078 50bd dbe5 2fbc e3b9 c83c
00000100: bd9c 5e3d ac3c 38bd 8458 be3c f71e 80bc
00000110: 0b66 ab3d 3d07 d13d 97f6 66bd b94a 6dbd
00000120: 13c1 9abd 503f 653c c752 40bc 73d1 63bd
00000130: 8d28 64bd 8948 83bd ab6e 023c 5353 1c3d
00000140: 657c afbb dd61 76bd 1150 c73c 4bcc a23c
00000150: 5fc0 9a3c 72f4 a3bd a0ab 6dbd 49e5 db3d
00000160: c5be 87bc c32c 81bd cf82 b23d 5862 a7bd
00000170: 9b98 48bd 16ad 98ba a679 783d 3317 a23c
00000180: 8298 b4bd 6efe cf3c c5c1 aebc 27de ab3c
00000190: 188a 923d 1fc4 debd 9e6c a03d 832f 5d3c
000001a0: 8671 e23d 79e9 123c ba30 4e3c 63ae 613d
000001b0: df9f 843c 1d06 09bd e7b6 0e3a ff2a ef3b
000001c0: 5cee debc 0f08 aa3c db88 543c 4760 3e3d
000001d0: 3fc8 c5bb e3ce 6abd 689a e7bc c310 c83d
000001e0: ed5c b3bb 3758 873d c8e0 1abd 5294 3e3c
000001f0: 8df4 fbbc fd8e 273d 0395 59bd 7438 61bd
00000200: 74d3 393d 6444 af3d d321 8dbd c6c4 b23c
00000210: 5157 b93d 70d9 a83c fce9 933d 84e7 a8bd
00000220: 8067 683d 3f2f 90bc 0b46 173c a7e1 673c
00000230: fa2b 3dbc d7c7 fd3c 3110 113d eec4 78bd
00000240: 4fa6 03bd 3bf1 dabc 5d19 3e3d c9dc 063d
00000250: eefc 343d 1d05 5dbd db1d 86bd 2b63 163c
00000260: 6964 1b3d 2961 a6bd b5d3 86bd 4ece 8dbd
00000270: 54e0 cbbc 2a98 093e fd18 9a3d 8ce3 a1bc
00000280: eb73 9cb9 0221 f438 98bf 5fbd 2511 a73c
00000290: 019f 32bd 740a 7fbd 0d53 8b3c 03b5 783d
000002a0: d679 0fbd d790 933d d3e9 7c3d 4c75 5b3d
000002b0: 72e2 9f3d bb1f e23d bbad 893d 3b10 b43c
000002c0: e68e a2bc 2493 6abc 6a8c 03bc ea09 91bb
000002d0: 0335 84bd 7cbf 98bc d30a 8a3b 7a9b e3bb
000002e0: 7be8 9d3a 3f51 eabc dda6 53bd 4eff a53d
000002f0: d7dd 41bd 3b9d 7fbd 8495 9fbd 0774 463b
00000300: 556e 853a 794c d1bb a392 a6bd f7eb 65bd
00000310: f4f6 533c d7e9 3abc 4c52 84bd 4c20 623d
00000320: d26a 85bd cb71 b93d 4576 5ebd cc9b 08bd
00000330: ac59 933d 6ace 6b3d 9425 b83c 3e7f 09bd
00000340: ab8a 85bd 3ab0 d4bc 4ad4 9bbc 16a1 003d
00000350: 4a33 653d 112a 33bc c1fb 863d e468 a83c
00000360: 6568 17bd ee81 793d cd00 9c3d 63d9 dc3c
00000370: ed2d b93d c6ae a3bd 97fd 0ebc 621f 9f3d
00000380: 809d bf3c 81e5 ec3d 636e d53d 9d45 bdbc
00000390: 417b 063e 6376 c3bc 3ac9 b83d 8ae2 af3c
000003a0: 1761 a63d cb81 b13c 145e 9a3d 415a 853d
000003b0: 6885 9ebd a9fc 8e3c 7ee4 3a3d 9dc6 ff3d
000003c0: b2d8 843b f6dc de3d 07cb a2bc 642e 6dbc
000003d0: 37e8 303d cad6 e43b e9ba faba e60f 5abd
000003e0: 5af7 7b3d 09bb 55bd b015 afbc 2439 543d
000003f0: 5c5b d73d 688b 7abd 46d4 993d 89be 613d

fc2.bias f4 [84]
0.04681012 0.029215917 -0.08517175 0.07164543 -0.069995165 0.024360826 0.06825985 0.09091847
0.030813321 0.04509754 -0.08182278 -0.019840708 -0.089723006 -0.059263874 -0.10207935 -0.03938456
0.0116035575 0.130241 -0.07140046 -0.00547841 0.074889086 -0.018534457 0.009590111 0.014101157
0.094195835 0.00041879248 0.048191797 -0.14778127 -0.057530023 0.017830884 0.020462781 0.032121614
-0.08414142 0.0018206456 -0.08108919 0.02823681 0.12092486 -0.06997558 0.0059078676 0.055052064
-0.03632293 -0.041601364 -0.0344985 0.0034018422 0.048863634 -0.019527528 0.0957331 -0.11427021
0.09251243 0.07895952 -0.016120274 0.109938666 0.065750174 -0.04922469 0.019861357 0.07759476
-0.03421656 0.015957246 -0.009693368 -0.048405148 0.036343783 0.07636688 0.027189353 0.0899415
-0.026150122 -0.03452924 0.11466553 0.015548038 0.022123488 0.0114758555 -0.05078919 0.04801387
-0.035245575 0.0094172815 0.08531102 -0.010066457 0.018517774 -0.0779421 0.13982606 -0.013689664
0.11065233 -0.05822764 0.008296972 -0.014935567
00000000: f8bb 3f3d 3856 ef3c 876e aebd d7ba 923d
00000010: a059 8fbd 5b90 c73c d2cb 8b3d 7633 ba3d
00000020: 386c fc3c 33b8 383d b492 a7bd fb88 a2bc
00000030: b2c0 b7bd adbe 72bd fa0e d1bd b451 21bd
00000040: d91c 3e3c e65d 053e 683a 92bd 3c84 b3bb
00000050: 735f 993d 93d5 97bc d71f 1d3c 8a08 673c
00000060: bfe9 c03d 6091 db39 c364 453d f953 17be
00000070: 9aa4 6bbd 1312 923c 90a1 a73c f491 033d
00000080: 5652 acbd bba2 ee3a 1712 a6bd e250 e73c
00000090: 74a7 f73d 5b4f 8fbd c996 c13b 467e 613d
000000a0: 5ac7 14bd 3166 2abd 4d4e 0dbd 71f1 5e3b
000000b0: 3c25 483d 32f8 9fbc b70f c43d 8006 eabd
000000c0: 2877 bd3d 87b5 a13d aa0e 84bc 8627 e13d
000000d0: 07a8 863d d49f 49bd 49b4 a23c 00ea 9e3d
000000e0: aa26 0cbd c5b8 823c efd0 1ebc 7a44 46bd
000000f0: 38dd 143d 3d66 9c3d 35bc de3c 4033 b83d
00000100: c838 d6bc 886e 0dbd c3d5 ea3d 33bd 7e3c
00000110: 513c b53c 3a05 3c3c 5308 50bd 31aa 443d
00000120: aa5d 10bd f14a 1a3c 8bb7 ae3d c8ed 24bc
00000130: 96b2 973c 1ca0 9fbd 902e 0f3e 9d4a 60bc
00000140: b09d e23d 1b80 6ebd 06f0 073c 4fb4 74bc

fc3.weight f4 [10, 84]
-0.081261545 -0.12457847 -0.06821322 0.03203884 -0.016459102 0.069939025 -0.044900876 -0.031939797
0.041331388 -0.01627718 -0.14932458 0.06309578 -0.013340357 -0.012781871 -0.10883782 0.07025771
0.019223444 -0.1559275 0.110010706 0.2348778 0.006163253 0.0070348894 0.14346345 -0.0094040455
-0.07959271 0.013551758 0.037238225 -0.006459581 0.07551222 0.0033257403 -0.024401082 0.10042983
0.04745316 -0.04099734 -0.032244604 -0.040510796 -0.04166815 0.03851398 0.042586703 0.03676982
-0.03888921 -0.08484871 -0.20411909 0.006147872 0.00299012 0.067540586 0.0008298054 -0.04676004
-0.009640922 0.13057093 0.17204416 0.078889914 0.017124452 -0.13073507 -0.1547084 0.09282074
0.04031705 -0.006214884 0.16524395 0.123336606 0.04676254 -0.05542931 -0.020983962 0.077368714
-0.03866759 0.092557155 -0.09278822 -0.021408191 0.1056677 0.01460361 0.08892962 -0.12159219
-0.09622877 0.024558358 0.1190617 0.11280869 0.08751084 0.12909503 -0.064075924 0.027142877
0.05434291 0.0966539 -0.13123576 0.07707406 -0.17145032 -0.16974123 -0.018766992 -0.19077787
0.08217251 0.0075455825 0.17229398 -0.07178612 -0.048521873 -0.05158577 0.08391007 -0.10093976
0.044142354 0.04509968 -0.057802122 -0.013451453 -0.08241349 -0.088924915 -0.05572256 0.08397981
-0.16132772 -0.08436767 0.009596355 -0.06569411 -0.16250096 0.025652587 -0.17871784 0.10262085
0.094260745 0.012745131 -0.09317643 -0.21705902 0.09252967 0.10792945 -0.02356471 0.14733149
-0.034142897 0.010025938 -0.08203155 -0.023000026 0.18570413 0.015978849 -0.025908932 0.048618823
-0.015865112 0.055402298 -0.116033144 0.14185315 -0.024939952 -0.07343297 -0.07857906 -0.12140059
-0.17369297 0.052877784 0.057417046 0.033405334 -0.029809726 -0.10689138 0.13290839 -0.15863177
0.029019948 -0.15353434 0.188042 -0.12021579 -0.012264296 0.10628408 -0.16749044 0.108802065
0.16819835 -0.010852065 0.10486104 0.047500998 0.14213191 -0.08335966 -0.08578548 0.039673943
-0.1645205 0.1415027 -0.02201129 0.078748345 -0.00689894 -0.025602616 -0.082423896 0.15640335
-0.082951285 -0.011876845 0.061586022 -0.071290046 0.026911026 -0.049249955 -0.014802253 -0.13469242
-0.031467367 0.014807675 -0.019396251 -0.0025999092 0.046150908 -0.061810005 0.048913665 0.14007361
0.050064374 0.085192844 0.08476612 -0.09890134 -0.000316818 0.03552645 -0.046770502 -0.050978303
0.19646525 -0.13002107 0.103383735 -0.11455626 0.03102739 0.095285535 0.08750222 0.021505423
0.03677828 -0.11815861 0.095487155 0.028403478 -0.065967955 -0.022673722 0.099036835 -0.05011341
-0.12035393 0.019259194 0.035014 0.16144732 0.025128411 -0.081315786 0.20762642 -0.007324349
0.10499209 -0.021756768 -0.09435375 0.17674573 0.14359505 -0.072914906 0.12491228 0.097161666
0.027343802 -0.05555621 0.10935177 0.09653333 -0.090102434 0.15457806 -0.09985824 0.0091226185
-0.07835989 0.08380622 0.026693055 0.055339187 0.034350004 0.16335338 -0.067179635 -0.048103657
0.10148315 0.023124075 0.16484722 0.14094019 -0.04612437 -0.075426064 0.1020715 -0.14246775
0.037054732 -0.07748257 -0.08327401 -0.0897843 -0.11383734 0.14097795 0.003830881 0.12294064
00000000: 746c a6bd ff22 ffbd 5fb3 8bbd 293b 033d
00000010: 3dd5 86bc 313c 8f3d fbe9 37bd 4ed3 02bd
00000020: 1a4b 293d b857 85bc 8be8 18be 5c38 813d
00000030: 8391 5abc 0d6b 51bc 5de6 debd 46e3 8f3d
00000040: 7c7a 9d3c 75ab 1fbe 4b4d e13d ce83 703e
00000050: 1df5 c93b ee84 e63b 15e8 123e 6d13 1abc
00000060: 8101 a3bd 3108 5e3c 1c87 183d e5aa d3bb
00000070: 27a6 9a3d aaf4 593b c7e4 c7bc 28ae cd3d
00000080: 3f5e 423d d4ec 27bd eb12 04bd a6ee 25bd
00000090: 39ac 2abd d6c0 1d3d 656f 2e3d f39b 163d
000000a0: 4b4a 1fbd 29c5 adbd 9804 51be 1774 c93b
000000b0: e4f5 433b b852 8a3d 4c87 593a 7587 3fbd
000000c0: f5f4 1dbc 63b4 053e 582c 303e 0991 a13d
000000d0: 9448 8c3c 6adf 05be e16b 1ebe cd18 be3d
000000e0: 7e23 253d 3aa6 cbbb b635 293e e797 fc3d
000000f0: 148a 3f3d d809 63bd 8fe6 abbc 7d73 9e3d
00000100: e861 1ebd 9b8e bd3d c007 bebd 3b60 afbc
00000110: 4f68 d83d fb43 6f3c bc20 b63d 5305 f9bd
00000120: 9713 c5bd 9c2e c93c 9fd6 f33d 3e08 e73d
00000130: e238 b33d 7d31 043e 3d3a 83bd bd5a de3c
00000140: ac96 5e3d 7bf2 c53d ab62 06be 01d9 9d3d
00000150: ac90 2fbe a5d0 2dbe 3cbd 99bc 465b 43be
00000160: 104a a83d ef40 f73b d56d 303e 9a04 93bd
00000170: dfbe 46bd 9a4b 53bd 0bd9 ab3d 81b9 cebd
00000180: 9dce 343d 71ba 383d ebc1 6cbd 7c63 5cbc
00000190: 67c8 a8bd 441e b6bd 573d 64bd 9bfd ab3d
000001a0: 1833 25be f5c8 acbd 083a 1d3c a28a 86bd
000001b0: a766 26be 6025 d23c cf01 37be e12a d23d
000001c0: c70b c13d f4d0 503c 49d3 bebd b844 5ebe
000001d0: 3280 bd3d 1e0a dd3d c70a c1bc 11de 163e
000001e0: 6cd9 0bbd d543 243c 2800 a8bd 8d6a bcbc
000001f0: 3929 3e3e 13e6 823c f83e d4bc 8824 473d
00000200: 8df7 81bc 85ed 623d c9a2 edbd f441 113e
00000210: df4e ccbc 0664 96bd 0fee a0bd dfa0 f8bd
00000220: 92dc 31be 6096 583d 232e 6b3d 08d4 083d
00000230: 8733 f4bc dee9 dabd 2319 083e 5e70 22be
00000240: 3ebb ed3c 1b38 1dbe 158e 403e b233 f6bd
00000250: 30f0 48bc 78ab d93d 9d82 2bbe 9ed3 de3d
00000260: 303c 2c3e dccc 31bc 63c1 d63d 6890 423d
00000270: 078b 113e 78b8 aabd 4cb0 afbd 2581 223d
00000280: 1078 28be 15e6 103e 0551 b4bc d046 a13d
00000290: 8110 e2bb 94bc d1bc dccd a8bd 3328 203e
000002a0: 5de2 a9bd 1997 42bc a041 7c3d 8400 92bd
000002b0: 8374 dc3c 52ba 49bd 2685 72bc cfec 09be
000002c0: ede3 00bd e49b 723c e3e4 9ebc 3d63 2abb
000002d0: bc08 3d3d 7d2c 7dbd b259 483d 756f 0f3e
000002e0: 4d10 4d3d 9679 ae3d dc99 ad3d c98c cabd
000002f0: 981a a6b9 2f84 113d 6d92 3fbd a0ce 50bd
00000300: 302e 493e 3e24 05be daba d33d 799c eabd
00000310: 272d fe3c 1025 c33d 5d34 b33d 242c b03c
00000320: d2a4 163d 24fd f1bd c58e c33d 69ae e83c
00000330: 351a 87bd 3ebe b9bc d3d3 ca3d b843 4dbd
00000340: 1f7c f6bd 75c5 9d3c d76a 0f3d 7252 253e
00000350: 19da cd3c e488 a6bd 059c 543e 1801 f0bb
00000360: 1806 d73d 403b b2bc 8a3c c1bd d5fc 343e
00000370: 950a 133e 6954 95bd 02d2 ff3d b2fc c63d
00000380: 1c00 e03c e98e 63bd d2f3 df3d 44b3 c53d
00000390: a087 b8bd b649 1e3e 7a82 ccbd 0977 153c
000003a0: 267b a0bd 98a2 ab3d 65ab da3c 58ab 623d
000003b0: 97b2 0c3d 1c46 273e 7a95 89bd 5708 45bd
000003c0: 66d6 cf3d b36e bd3c b6cd 283e a052 103e
000003d0: e8ec 3cbd fb78 9abd dd0a d13d 11e3 11be
000003e0: b4c6 173d 2faf 9ebd 908b aabd d5e0 b7bd
000003f0: 8d23 e9bd 865c 103e 850f 7b3b 4dc8 fb3d

fc3.bias f4 [10]
-0.072927564 -0.09138458 0.17018862 -0.0512348 0.19464712 -0.05954826 0.20628542 -0.05489909
0.043252204 -0.06441502
00000000: 0c5b 95bd d727 bbbd ed45 2e3e 95db 51bd
00000010: 9351 473e e0e8 73bd 7c3c 533e dedd 60bd
00000020: 3929 313d 06ec 83bd
